…
<h4 id="model-summary">Model summary</h4>

<figure class="highlight"><pre><code class="language-python" data-lang="python"><span class="n">model</span><span class="p">.</span><span class="n">summary</span><span class="p">()</span></code></pre></figure>

<div class="language-plaintext highlighter-rouge"><div class="highlight"><pre class="highlight"><code>    Model: "sequential_1"
    _________________________________________________________________
    Layer (type)                 Output Shape              Param #   
    =================================================================
    rescaling_1 (Rescaling)      (None, 180, 180, 3)       0         
    _________________________________________________________________
    conv2d_3 (Conv2D)            (None, 180, 180, 16)      448       
    _________________________________________________________________
    max_pooling2d_3 (MaxPooling2 (None, 90, 90, 16)        0         
    _________________________________________________________________
    conv2d_4 (Conv2D)            (None, 90, 90, 32)        4640      
    _________________________________________________________________
    max_pooling2d_4 (MaxPooling2 (None, 45, 45, 32)        0         
    _________________________________________________________________
    conv2d_5 (Conv2D)            (None, 45, 45, 64)        18496     
    _________________________________________________________________
    max_pooling2d_5 (MaxPooling2 (None, 22, 22, 64)        0         
    _________________________________________________________________
    flatten_1 (Flatten)          (None, 30976)             0         
    _________________________________________________________________
    dense_2 (Dense)              (None, 128)               3965056   
    _________________________________________________________________
    dense_3 (Dense)              (None, 3)                 387       
    =================================================================
    Total params: 3,989,027
    Trainable params: 3,989,027
    Non-trainable params: 0
    _________________________________________________________________
</code></pre></div></div>

<p><br />
Based on the model summary, we can see that the output of every Conv2D and MaxPooling2D layer is a 3D tensor of shape (height, width, channels). The width and height dimensions tend to shrink as going deeper in the network. We added dense layers on top and feed the last output tensor from the convolutional base into one or more Dense layers to perform classification.</p>
…
